…
epoch 0, expert with 2 num_layers, eval acc 0.612
epoch 1, expert with 2 num_layers, eval acc 0.6065
epoch 0, expert with 3 num_layers, eval acc 0.6054
epoch 1, expert with 3 num_layers, eval acc 0.6087
epoch 0, expert with 4 num_layers, eval acc 0.6087
epoch 1, expert with 4 num_layers, eval acc 0.6087
epoch 0, expert with 5 num_layers, eval acc 0.5978
epoch 1, expert with 5 num_layers, eval acc 0.6098
epoch 0, expert with 6 num_layers, eval acc 0.6054
epoch 1, expert with 6 num_layers, eval acc 0.6065
==========================================================
[Expert(
  (input_layer): Sequential(
    (0): Linear(in_features=57, out_features=1, bias=True)
    (1): ReLU()
  )
  (output_layer): Identity()
  (layers): ModuleList()
), Expert(
  (input_layer): Sequential(
    (0): Linear(in_features=57, out_features=16, bias=True)
    (1): ReLU()
  )
  (output_layer): Linear(in_features=16, out_features=1, bias=True)
  (layers): ModuleList()
), Expert(
  (input_layer): Sequential(
    (0): Linear(in_features=57, out_features=16, bias=True)
    (1): ReLU()
  )
  (output_layer): Linear(in_features=16, out_features=1, bias=True)
  (layers): ModuleList(
    (0): Linear(in_features=16, out_features=16, bias=True)
    (1): ReLU()
  )
), Expert(
  (input_layer): Sequential(
    (0): Linear(in_features=57, out_features=16, bias=True)
    (1): ReLU()
  )
  (output_layer): Linear(in_features=16, out_features=1, bias=True)
  (layers): ModuleList(
    (0): Linear(in_features=16, out_features=16, bias=True)
    (1): ReLU()
    (2): Linear(in_features=16, out_features=16, bias=True)
    (3): ReLU()
  )
), Expert(
  (input_layer): Sequential(
    (0): Linear(in_features=57, out_features=16, bias=True)
    (1): ReLU()
  )
  (output_layer): Linear(in_features=16, out_features=1, bias=True)
  (layers): ModuleList(
    (0): Linear(in_features=16, out_features=16, bias=True)
    (1): ReLU()
    (2): Linear(in_features=16, out_features=16, bias=True)
    (3): ReLU()
    (4): Linear(in_features=16, out_features=16, bias=True)
    (5): ReLU()
  )
), Expert(
  (input_layer): Sequential(
    (0): Linear(in_features=57, out_features=16, bias=True)
    (1): ReLU()
  )
  (output_layer): Linear(in_features=16, out_features=1, bias=True)
  (layers): ModuleList(
    (0): Linear(in_features=16, out_features=16, bias=True)
    (1): ReLU()
    (2): Linear(in_features=16, out_features=16, bias=True)
    (3): ReLU()
    (4): Linear(in_features=16, out_features=16, bias=True)
    (5): ReLU()
    (6): Linear(in_features=16, out_features=16, bias=True)
    (7): ReLU()
  )
)]
distribution of experts advice after seeing 0 samples: [0.17981301 0.17958176 0.17952605 0.10201113 0.17952373 0.17954431]
distribution of experts advice after seeing 100 samples: [0.1669456  0.16718136 0.16723779 0.16401705 0.16734202 0.16727618]
distribution of experts advice after seeing 200 samples: [0.18009434 0.17999467 0.1799657  0.1000007  0.17996921 0.17997538]
…
