…
epoch 0, expert with 2 num_layers, eval acc 0.65
epoch 1, expert with 2 num_layers, eval acc 0.662
epoch 0, expert with 3 num_layers, eval acc 0.638
epoch 1, expert with 3 num_layers, eval acc 0.6391
epoch 0, expert with 4 num_layers, eval acc 0.6185
epoch 1, expert with 4 num_layers, eval acc 0.6207
epoch 0, expert with 5 num_layers, eval acc 0.6087
epoch 1, expert with 5 num_layers, eval acc 0.6087
epoch 0, expert with 6 num_layers, eval acc 0.6033
epoch 1, expert with 6 num_layers, eval acc 0.6054
==========================================================
[Expert(
  (input_layer): Sequential(
    (0): Linear(in_features=57, out_features=1, bias=True)
    (1): ReLU()
  )
  (output_layer): Identity()
  (layers): ModuleList()
), Expert(
  (input_layer): Sequential(
    (0): Linear(in_features=57, out_features=16, bias=True)
    (1): ReLU()
  )
  (output_layer): Linear(in_features=16, out_features=1, bias=True)
  (layers): ModuleList()
), Expert(
  (input_layer): Sequential(
    (0): Linear(in_features=57, out_features=16, bias=True)
    (1): ReLU()
  )
  (output_layer): Linear(in_features=16, out_features=1, bias=True)
  (layers): ModuleList(
    (0): Linear(in_features=16, out_features=16, bias=True)
    (1): ReLU()
  )
), Expert(
  (input_layer): Sequential(
    (0): Linear(in_features=57, out_features=16, bias=True)
    (1): ReLU()
  )
  (output_layer): Linear(in_features=16, out_features=1, bias=True)
  (layers): ModuleList(
    (0): Linear(in_features=16, out_features=16, bias=True)
    (1): ReLU()
    (2): Linear(in_features=16, out_features=16, bias=True)
    (3): ReLU()
  )
), Expert(
  (input_layer): Sequential(
    (0): Linear(in_features=57, out_features=16, bias=True)
    (1): ReLU()
  )
  (output_layer): Linear(in_features=16, out_features=1, bias=True)
  (layers): ModuleList(
    (0): Linear(in_features=16, out_features=16, bias=True)
    (1): ReLU()
    (2): Linear(in_features=16, out_features=16, bias=True)
    (3): ReLU()
    (4): Linear(in_features=16, out_features=16, bias=True)
    (5): ReLU()
  )
), Expert(
  (input_layer): Sequential(
    (0): Linear(in_features=57, out_features=16, bias=True)
    (1): ReLU()
  )
  (output_layer): Linear(in_features=16, out_features=1, bias=True)
  (layers): ModuleList(
    (0): Linear(in_features=16, out_features=16, bias=True)
    (1): ReLU()
    (2): Linear(in_features=16, out_features=16, bias=True)
    (3): ReLU()
    (4): Linear(in_features=16, out_features=16, bias=True)
    (5): ReLU()
    (6): Linear(in_features=16, out_features=16, bias=True)
    (7): ReLU()
  )
)]
distribution of experts advice after seeing 0 samples: [0.19934368 0.19895846 0.19897847 0.19891556 0.00487455 0.19892927]
distribution of experts advice after seeing 100 samples: [0.19560652 0.19763796 0.20496442 0.20430507 0.         0.19748603]
distribution of experts advice after seeing 200 samples: [0.18465015 0.20367181 0.21139832 0.20707384 0.         0.19320587]
…
