…
epoch 0, expert with 2 num_layers, eval acc 0.6054
epoch 1, expert with 2 num_layers, eval acc 0.6076
epoch 0, expert with 3 num_layers, eval acc 0.6065
epoch 1, expert with 3 num_layers, eval acc 0.6065
epoch 0, expert with 4 num_layers, eval acc 0.6033
epoch 1, expert with 4 num_layers, eval acc 0.6
epoch 0, expert with 5 num_layers, eval acc 0.6043
epoch 1, expert with 5 num_layers, eval acc 0.6076
epoch 0, expert with 6 num_layers, eval acc 0.6239
epoch 1, expert with 6 num_layers, eval acc 0.6087
==========================================================
[Expert(
  (input_layer): Sequential(
    (0): Linear(in_features=57, out_features=1, bias=True)
    (1): ReLU()
  )
  (output_layer): Identity()
  (layers): ModuleList()
), Expert(
  (input_layer): Sequential(
    (0): Linear(in_features=57, out_features=16, bias=True)
    (1): ReLU()
  )
  (output_layer): Linear(in_features=16, out_features=1, bias=True)
  (layers): ModuleList()
), Expert(
  (input_layer): Sequential(
    (0): Linear(in_features=57, out_features=16, bias=True)
    (1): ReLU()
  )
  (output_layer): Linear(in_features=16, out_features=1, bias=True)
  (layers): ModuleList(
    (0): Linear(in_features=16, out_features=16, bias=True)
    (1): ReLU()
  )
), Expert(
  (input_layer): Sequential(
    (0): Linear(in_features=57, out_features=16, bias=True)
    (1): ReLU()
  )
  (output_layer): Linear(in_features=16, out_features=1, bias=True)
  (layers): ModuleList(
    (0): Linear(in_features=16, out_features=16, bias=True)
    (1): ReLU()
    (2): Linear(in_features=16, out_features=16, bias=True)
    (3): ReLU()
  )
), Expert(
  (input_layer): Sequential(
    (0): Linear(in_features=57, out_features=16, bias=True)
    (1): ReLU()
  )
  (output_layer): Linear(in_features=16, out_features=1, bias=True)
  (layers): ModuleList(
    (0): Linear(in_features=16, out_features=16, bias=True)
    (1): ReLU()
    (2): Linear(in_features=16, out_features=16, bias=True)
    (3): ReLU()
    (4): Linear(in_features=16, out_features=16, bias=True)
    (5): ReLU()
  )
), Expert(
  (input_layer): Sequential(
    (0): Linear(in_features=57, out_features=16, bias=True)
    (1): ReLU()
  )
  (output_layer): Linear(in_features=16, out_features=1, bias=True)
  (layers): ModuleList(
    (0): Linear(in_features=16, out_features=16, bias=True)
    (1): ReLU()
    (2): Linear(in_features=16, out_features=16, bias=True)
    (3): ReLU()
    (4): Linear(in_features=16, out_features=16, bias=True)
    (5): ReLU()
    (6): Linear(in_features=16, out_features=16, bias=True)
    (7): ReLU()
  )
)]
distribution of experts advice after seeing 0 samples: [0.16709141 0.16654656 0.16659521 0.16657658 0.16658971 0.16660054]
distribution of experts advice after seeing 100 samples: [0.16636027 0.16673276 0.16675198 0.16662336 0.16677107 0.16676056]
distribution of experts advice after seeing 200 samples: [0.16588968 0.16673721 0.16685235 0.1668066  0.16684803 0.16686613]
…
